iris.model (torch, 1805 bytes, 4 tensors)

model_info.0.weight f4 [6, 4]
0.92965984 0.5938187 -1.4908605 -0.7677246 -0.6685485 -0.49130464 1.6330968 0.8223036
0.20656982 0.077284336 -0.6080831 0.034462575 -0.22554028 -0.6863816 0.87580365 0.27189997
0.15942314 1.134182 -0.9877509 -0.87827843 1.0506076 0.8956088 -1.5979084 -1.1147146
00000000: 30fe 6d3f 8104 183f 84d4 bebf 9989 44bf
00000010: ff25 2bbf 488c fbbe 5109 d13f 7d82 523f
00000020: 0a87 533e 4047 9e3d 56ab 1bbf a128 0d3d
00000030: 08f4 66be b4b6 2fbf ab34 603f 7936 8b3e
00000040: d23f 233e e02c 913f 3edd 7cbf dbd6 60bf
00000050: 4f7a 863f 9e46 653f 4388 ccbf f8ae 8ebf

model_info.0.bias f4 [6]
0.6152636 -0.328876 0.07023346 0.19439101 0.62733746 0.019604063
00000000: ea81 1d3f 6f62 a8be 8fd6 8f3d 700e 473e
00000010: 3099 203f b398 a03c

model_info.2.weight f4 [3, 6]
1.4021462 -2.7704234 0.38223812 -1.2746211 1.7033206 1.7729633 0.98336524 0.5765194
0.093000755 0.0771086 -0.2720119 0.55384886 -1.571444 1.9002693 -0.25412318 1.1975986
-1.7915448 -2.3416617
00000000: 8779 b33f 9e4e 31c0 b7b4 c33e c926 a3bf
00000010: 6906 da3f 76f0 e23f d3bd 7b3f c796 133f
00000020: 2e77 be3d 1deb 9d3d 2545 8bbe 0ac9 0d3f
00000030: 1425 c9bf 063c f33f 6f1c 82be e94a 993f
00000040: 5751 e5bf c9dd 15c0

model_info.2.bias f4 [3]
-0.5471035 0.08407583 0.432175
00000000: fa0e 0cbf f32f ac3d 0b46 dd3e
